…
length of train_idx: 1467
length of val_idx: 312
length of test_idx: 314
workers: 8
length of training generator is: 183
workers: 8
length of valid generator is: 39
workers: 8
length of test generator is: 39
Number of training batches: 183
Number of validation batches: 39
Number of test batches: 39
self.task: MBBN
Number of heads: 4
Number of parameters of the model: 19082559
Number of dropout layers counted one by one of the model: 29
Model summary:
Transformer_Finetune_Three_Channels(
  (transformer): Transformer_Block(
    (bert): BertModel(
      (embeddings): BertEmbeddings(
        (word_embeddings): Embedding(1, 316, padding_idx=0)
        (position_embeddings): Embedding(93, 316)
        (token_type_embeddings): Embedding(2, 316)
        (LayerNorm): LayerNorm((316,), eps=1e-12, elementwise_affine=True)
        (dropout): Dropout(p=0.3, inplace=False)
      )
      (encoder): BertEncoder(
        (layer): ModuleList(
          (0-7): 8 x BertLayer(
            (attention): BertAttention(
              (self): BertSelfAttention(
                (query): Linear(in_features=316, out_features=316, bias=True)
                (key): Linear(in_features=316, out_features=316, bias=True)
                (value): Linear(in_features=316, out_features=316, bias=True)
                (dropout): Dropout(p=0.1, inplace=False)
              )
              (output): BertSelfOutput(
                (dense): Linear(in_features=316, out_features=316, bias=True)
                (LayerNorm): LayerNorm((316,), eps=1e-12, elementwise_affine=True)
                (dropout): Dropout(p=0.3, inplace=False)
              )
            )
            (intermediate): BertIntermediate(
              (dense): Linear(in_features=316, out_features=3072, bias=True)
              (intermediate_act_fn): GELUActivation()
            )
            (output): BertOutput(
              (dense): Linear(in_features=3072, out_features=316, bias=True)
              (LayerNorm): LayerNorm((316,), eps=1e-12, elementwise_affine=True)
              (dropout): Dropout(p=0.3, inplace=False)
            )
          )
        )
      )
      (pooler): BertPooler(
        (dense): Linear(in_features=316, out_features=316, bias=True)
        (activation): Tanh()
      )
    )
    (cls_embedding): Sequential(
      (0): Linear(in_features=316, out_features=316, bias=True)
      (1): LeakyReLU(negative_slope=0.01)
    )
  )
  (high_spatial_attention): Attention(
    (qkv): Linear(in_features=92, out_features=276, bias=False)
    (attn_drop): Dropout(p=0.0, inplace=False)
  )
  (low_spatial_attention): Attention(
    (qkv): Linear(in_features=92, out_features=276, bias=False)
    (attn_drop): Dropout(p=0.0, inplace=False)
  )
  (ultralow_spatial_attention): Attention(
    (qkv): Linear(in_features=92, out_features=276, bias=False)
    (attn_drop): Dropout(p=0.0, inplace=False)
  )
  (regression_head): Classifier(
    (linear): Linear(in_features=316, out_features=1, bias=True)
    (dropout): Dropout(p=0.6, inplace=False)
    (norm): BatchNorm1d(1, eps=1e-05, momentum=0.1, affine=True, track_running_stats=True)
  )
)
Model parameters info:
Model parameters:
transformer.bert.embeddings.word_embeddings.weight
Parameter containing:
tensor([[0., 0., 0., 0., 0., 0., 0., 0., 0., 0., 0., 0., 0., 0., 0., 0., 0., 0., 0., 0., 0., 0., 0., 0.,
         0., 0., 0., 0., 0., 0., 0., 0., 0., 0., 0., 0., 0., 0., 0., 0., 0., 0., 0., 0., 0., 0., 0., 0.,
         0., 0., 0., 0., 0., 0., 0., 0., 0., 0., 0., 0., 0., 0., 0., 0., 0., 0., 0., 0., 0., 0., 0., 0.,
…
Parameter containing:
tensor([[ … requires_grad=True)
Model parameters:
regression_head.linear.bias
Parameter containing:
tensor([0.0362], requires_grad=True)
Model parameters:
regression_head.norm.weight
Parameter containing:
tensor([1.], requires_grad=True)
Model parameters:
regression_head.norm.bias
Parameter containing:
tensor([0.], requires_grad=True)
Model parameters:
<generator object Module.parameters at 0x7f6adb2bc0b0>
Model layers info:
Model layer:

Transformer_Finetune_Three_Channels(
  (transformer): Transformer_Block(
    (bert): BertModel(
      (embeddings): BertEmbeddings(
        (word_embeddings): Embedding(1, 316, padding_idx=0)
        (position_embeddings): Embedding(93, 316)
        (token_type_embeddings): Embedding(2, 316)
        (LayerNorm): LayerNorm((316,), eps=1e-12, elementwise_affine=True)
        (dropout): Dropout(p=0.3, inplace=False)
      )
      (encoder): BertEncoder(
        (layer): ModuleList(
          (0-7): 8 x BertLayer(
            (attention): BertAttention(
              (self): BertSelfAttention(
                (query): Linear(in_features=316, out_features=316, bias=True)
                (key): Linear(in_features=316, out_features=316, bias=True)
                (value): Linear(in_features=316, out_features=316, bias=True)
                (dropout): Dropout(p=0.1, inplace=False)
              )
              (output): BertSelfOutput(
                (dense): Linear(in_features=316, out_features=316, bias=True)
                (LayerNorm): LayerNorm((316,), eps=1e-12, elementwise_affine=True)
                (dropout): Dropout(p=0.3, inplace=False)
              )
            )
            (intermediate): BertIntermediate(
              (dense): Linear(in_features=316, out_features=3072, bias=True)
              (intermediate_act_fn): GELUActivation()
            )
            (output): BertOutput(
              (dense): Linear(in_features=3072, out_features=316, bias=True)
              (LayerNorm): LayerNorm((316,), eps=1e-12, elementwise_affine=True)
              (dropout): Dropout(p=0.3, inplace=False)
            )
          )
        )
      )
      (pooler): BertPooler(
        (dense): Linear(in_features=316, out_features=316, bias=True)
        (activation): Tanh()
      )
    )
    (cls_embedding): Sequential(
      (0): Linear(in_features=316, out_features=316, bias=True)
      (1): LeakyReLU(negative_slope=0.01)
    )
  )
  (high_spatial_attention): Attention(
    (qkv): Linear(in_features=92, out_features=276, bias=False)
    (attn_drop): Dropout(p=0.0, inplace=False)
  )
  (low_spatial_attention): Attention(
    (qkv): Linear(in_features=92, out_features=276, bias=False)
    (attn_drop): Dropout(p=0.0, inplace=False)
  )
  (ultralow_spatial_attention): Attention(
    (qkv): Linear(in_features=92, out_features=276, bias=False)
    (attn_drop): Dropout(p=0.0, inplace=False)
  )
  (regression_head): Classifier(
    (linear): Linear(in_features=316, out_features=1, bias=True)
    (dropout): Dropout(p=0.6, inplace=False)
    (norm): BatchNorm1d(1, eps=1e-05, momentum=0.1, affine=True, track_running_stats=True)
  )
)
Model layer:
transformer
Transformer_Block(
  (bert): BertModel(
    (embeddings): BertEmbeddings(
      (word_embeddings): Embedding(1, 316, padding_idx=0)
      (position_embeddings): Embedding(93, 316)
      (token_type_embeddings): Embedding(2, 316)
      (LayerNorm): LayerNorm((316,), eps=1e-12, elementwise_affine=True)
      (dropout): Dropout(p=0.3, inplace=False)
    )
    (encoder): BertEncoder(
      (layer): ModuleList(
        (0-7): 8 x BertLayer(
          (attention): BertAttention(
            (self): BertSelfAttention(
              (query): Linear(in_features=316, out_features=316, bias=True)
              (key): Linear(in_features=316, out_features=316, bias=True)
              (value): Linear(in_features=316, out_features=316, bias=True)
              (dropout): Dropout(p=0.1, inplace=False)
            )
            (output): BertSelfOutput(
              (dense): Linear(in_features=316, out_features=316, bias=True)
              (LayerNorm): LayerNorm((316,), eps=1e-12, elementwise_affine=True)
              (dropout): Dropout(p=0.3, inplace=False)
            )
          )
          (intermediate): BertIntermediate(
            (dense): Linear(in_features=316, out_features=3072, bias=True)
            (intermediate_act_fn): GELUActivation()
          )
          (output): BertOutput(
            (dense): Linear(in_features=3072, out_features=316, bias=True)
            (LayerNorm): LayerNorm((316,), eps=1e-12, elementwise_affine=True)
            (dropout): Dropout(p=0.3, inplace=False)
          )
        )
      )
    )
    (pooler): BertPooler(
      (dense): Linear(in_features=316, out_features=316, bias=True)
      (activation): Tanh()
    )
  )
  (cls_embedding): Sequential(
    (0): Linear(in_features=316, out_features=316, bias=True)
    (1): LeakyReLU(negative_slope=0.01)
  )
)
Model layer:
transformer.bert
BertModel(
  (embeddings): BertEmbeddings(
    (word_embeddings): Embedding(1, 316, padding_idx=0)
    (position_embeddings): Embedding(93, 316)
    (token_type_embeddings): Embedding(2, 316)
    (LayerNorm): LayerNorm((316,), eps=1e-12, elementwise_affine=True)
    (dropout): Dropout(p=0.3, inplace=False)
  )
  (encoder): BertEncoder(
    (layer): ModuleList(
      (0-7): 8 x BertLayer(
        (attention): BertAttention(
          (self): BertSelfAttention(
            (query): Linear(in_features=316, out_features=316, bias=True)
            (key): Linear(in_features=316, out_features=316, bias=True)
            (value): Linear(in_features=316, out_features=316, bias=True)
            (dropout): Dropout(p=0.1, inplace=False)
          )
          (output): BertSelfOutput(
            (dense): Linear(in_features=316, out_features=316, bias=True)
            (LayerNorm): LayerNorm((316,), eps=1e-12, elementwise_affine=True)
            (dropout): Dropout(p=0.3, inplace=False)
          )
        )
        (intermediate): BertIntermediate(
          (dense): Linear(in_features=316, out_features=3072, bias=True)
          (intermediate_act_fn): GELUActivation()
        )
        (output): BertOutput(
          (dense): Linear(in_features=3072, out_features=316, bias=True)
          (LayerNorm): LayerNorm((316,), eps=1e-12, elementwise_affine=True)
          (dropout): Dropout(p=0.3, inplace=False)
        )
      )
    )
  )
  (pooler): BertPooler(
    (dense): Linear(in_features=316, out_features=316, bias=True)
    (activation): Tanh()
  )
)
Model layer:
transformer.bert.embeddings
BertEmbeddings(
  (word_embeddings): Embedding(1, 316, padding_idx=0)
  (position_embeddings): Embedding(93, 316)
  (token_type_embeddings): Embedding(2, 316)
  (LayerNorm): LayerNorm((316,), eps=1e-12, elementwise_affine=True)
  (dropout): Dropout(p=0.3, inplace=False)
)
Model layer:
transformer.bert.embeddings.word_embeddings
Embedding(1, 316, padding_idx=0)
Model layer:
transformer.bert.embeddings.position_embeddings
Embedding(93, 316)
Model layer:
transformer.bert.embeddings.token_type_embeddings
Embedding(2, 316)
Model layer:
transformer.bert.embeddings.LayerNorm
LayerNorm((316,), eps=1e-12, elementwise_affine=True)
Model layer:
transformer.bert.embeddings.dropout
Dropout(p=0.3, inplace=False)
Model layer:
transformer.bert.encoder
BertEncoder(
  (layer): ModuleList(
    (0-7): 8 x BertLayer(
      (attention): BertAttention(
        (self): BertSelfAttention(
          (query): Linear(in_features=316, out_features=316, bias=True)
          (key): Linear(in_features=316, out_features=316, bias=True)
          (value): Linear(in_features=316, out_features=316, bias=True)
          (dropout): Dropout(p=0.1, inplace=False)
        )
        (output): BertSelfOutput(
          (dense): Linear(in_features=316, out_features=316, bias=True)
          (LayerNorm): LayerNorm((316,), eps=1e-12, elementwise_affine=True)
          (dropout): Dropout(p=0.3, inplace=False)
        )
      )
      (intermediate): BertIntermediate(
        (dense): Linear(in_features=316, out_features=3072, bias=True)
        (intermediate_act_fn): GELUActivation()
      )
      (output): BertOutput(
        (dense): Linear(in_features=3072, out_features=316, bias=True)
        (LayerNorm): LayerNorm((316,), eps=1e-12, elementwise_affine=True)
        (dropout): Dropout(p=0.3, inplace=False)
      )
    )
  )
)
Model layer:
transformer.bert.encoder.layer
ModuleList(
  (0-7): 8 x BertLayer(
    (attention): BertAttention(
      (self): BertSelfAttention(
        (query): Linear(in_features=316, out_features=316, bias=True)
        (key): Linear(in_features=316, out_features=316, bias=True)
        (value): Linear(in_features=316, out_features=316, bias=True)
        (dropout): Dropout(p=0.1, inplace=False)
      )
      (output): BertSelfOutput(
        (dense): Linear(in_features=316, out_features=316, bias=True)
        (LayerNorm): LayerNorm((316,), eps=1e-12, elementwise_affine=True)
        (dropout): Dropout(p=0.3, inplace=False)
      )
    )
    (intermediate): BertIntermediate(
      (dense): Linear(in_features=316, out_features=3072, bias=True)
      (intermediate_act_fn): GELUActivation()
    )
    (output): BertOutput(
      (dense): Linear(in_features=3072, out_features=316, bias=True)
      (LayerNorm): LayerNorm((316,), eps=1e-12, elementwise_affine=True)
      (dropout): Dropout(p=0.3, inplace=False)
    )
  )
)
Model layer:
transformer.bert.encoder.layer.0
BertLayer(
  (attention): BertAttention(
    (self): BertSelfAttention(
      (query): Linear(in_features=316, out_features=316, bias=True)
      (key): Linear(in_features=316, out_features=316, bias=True)
      (value): Linear(in_features=316, out_features=316, bias=True)
      (dropout): Dropout(p=0.1, inplace=False)
    )
    (output): BertSelfOutput(
      (dense): Linear(in_features=316, out_features=316, bias=True)
      (LayerNorm): LayerNorm((316,), eps=1e-12, elementwise_affine=True)
      (dropout): Dropout(p=0.3, inplace=False)
    )
  )
  (intermediate): BertIntermediate(
    (dense): Linear(in_features=316, out_features=3072, bias=True)
    (intermediate_act_fn): GELUActivation()
  )
  (output): BertOutput(
    (dense): Linear(in_features=3072, out_features=316, bias=True)
    (LayerNorm): LayerNorm((316,), eps=1e-12, elementwise_affine=True)
    (dropout): Dropout(p=0.3, inplace=False)
  )
)
Model layer:
transformer.bert.encoder.layer.0.attention
BertAttention(
  (self): BertSelfAttention(
    (query): Linear(in_features=316, out_features=316, bias=True)
    (key): Linear(in_features=316, out_features=316, bias=True)
    (value): Linear(in_features=316, out_features=316, bias=True)
    (dropout): Dropout(p=0.1, inplace=False)
  )
  (output): BertSelfOutput(
    (dense): Linear(in_features=316, out_features=316, bias=True)
    (LayerNorm): LayerNorm((316,), eps=1e-12, elementwise_affine=True)
    (dropout): Dropout(p=0.3, inplace=False)
  )
)
Model layer:
transformer.bert.encoder.layer.0.attention.self
BertSelfAttention(
  (query): Linear(in_features=316, out_features=316, bias=True)
  (key): Linear(in_features=316, out_features=316, bias=True)
  (value): Linear(in_features=316, out_features=316, bias=True)
  (dropout): Dropout(p=0.1, inplace=False)
)
Model layer:
transformer.bert.encoder.layer.0.attention.self.query
Linear(in_features=316, out_features=316, bias=True)
Model layer:
transformer.bert.encoder.layer.0.attention.self.key
Linear(in_features=316, out_features=316, bias=True)
Model layer:
transformer.bert.encoder.layer.0.attention.self.value
Linear(in_features=316, out_features=316, bias=True)
Model layer:
transformer.bert.encoder.layer.0.attention.self.dropout
Dropout(p=0.1, inplace=False)
Model layer:
transformer.bert.encoder.layer.0.attention.output
BertSelfOutput(
  (dense): Linear(in_features=316, out_features=316, bias=True)
  (LayerNorm): LayerNorm((316,), eps=1e-12, elementwise_affine=True)
  (dropout): Dropout(p=0.3, inplace=False)
)
Model layer:
transformer.bert.encoder.layer.0.attention.output.dense
Linear(in_features=316, out_features=316, bias=True)
Model layer:
transformer.bert.encoder.layer.0.attention.output.LayerNorm
LayerNorm((316,), eps=1e-12, elementwise_affine=True)
Model layer:
transformer.bert.encoder.layer.0.attention.output.dropout
Dropout(p=0.3, inplace=False)
Model layer:
transformer.bert.encoder.layer.0.intermediate
BertIntermediate(
  (dense): Linear(in_features=316, out_features=3072, bias=True)
  (intermediate_act_fn): GELUActivation()
)
Model layer:
transformer.bert.encoder.layer.0.intermediate.dense
Linear(in_features=316, out_features=3072, bias=True)
Model layer:
transformer.bert.encoder.layer.0.intermediate.intermediate_act_fn
GELUActivation()
Model layer:
transformer.bert.encoder.layer.0.output
BertOutput(
  (dense): Linear(in_features=3072, out_features=316, bias=True)
  (LayerNorm): LayerNorm((316,), eps=1e-12, elementwise_affine=True)
  (dropout): Dropout(p=0.3, inplace=False)
)
Model layer:
transformer.bert.encoder.layer.0.output.dense
Linear(in_features=3072, out_features=316, bias=True)
Model layer:
transformer.bert.encoder.layer.0.output.LayerNorm
LayerNorm((316,), eps=1e-12, elementwise_affine=True)
Model layer:
transformer.bert.encoder.layer.0.output.dropout
Dropout(p=0.3, inplace=False)
Model layer:
transformer.bert.encoder.layer.1
BertLayer(
  (attention): BertAttention(
    (self): BertSelfAttention(
      (query): Linear(in_features=316, out_features=316, bias=True)
      (key): Linear(in_features=316, out_features=316, bias=True)
      (value): Linear(in_features=316, out_features=316, bias=True)
      (dropout): Dropout(p=0.1, inplace=False)
    )
    (output): BertSelfOutput(
      (dense): Linear(in_features=316, out_features=316, bias=True)
      (LayerNorm): LayerNorm((316,), eps=1e-12, elementwise_affine=True)
      (dropout): Dropout(p=0.3, inplace=False)
    )
  )
  (intermediate): BertIntermediate(
    (dense): Linear(in_features=316, out_features=3072, bias=True)
    (intermediate_act_fn): GELUActivation()
  )
  (output): BertOutput(
    (dense): Linear(in_features=3072, out_features=316, bias=True)
    (LayerNorm): LayerNorm((316,), eps=1e-12, elementwise_affine=True)
    (dropout): Dropout(p=0.3, inplace=False)
  )
)
Model layer:
transformer.bert.encoder.layer.1.attention
BertAttention(
  (self): BertSelfAttention(
    (query): Linear(in_features=316, out_features=316, bias=True)
    (key): Linear(in_features=316, out_features=316, bias=True)
    (value): Linear(in_features=316, out_features=316, bias=True)
    (dropout): Dropout(p=0.1, inplace=False)
  )
  (output): BertSelfOutput(
    (dense): Linear(in_features=316, out_features=316, bias=True)
    (LayerNorm): LayerNorm((316,), eps=1e-12, elementwise_affine=True)
    (dropout): Dropout(p=0.3, inplace=False)
  )
)
Model layer:
transformer.bert.encoder.layer.1.attention.self
BertSelfAttention(
  (query): Linear(in_features=316, out_features=316, bias=True)
  (key): Linear(in_features=316, out_features=316, bias=True)
  (value): Linear(in_features=316, out_features=316, bias=True)
  (dropout): Dropout(p=0.1, inplace=False)
)
Model layer:
transformer.bert.encoder.layer.1.attention.self.query
Linear(in_features=316, out_features=316, bias=True)
Model layer:
transformer.bert.encoder.layer.1.attention.self.key
Linear(in_features=316, out_features=316, bias=True)
Model layer:
transformer.bert.encoder.layer.1.attention.self.value
Linear(in_features=316, out_features=316, bias=True)
Model layer:
transformer.bert.encoder.layer.1.attention.self.dropout
Dropout(p=0.1, inplace=False)
Model layer:
transformer.bert.encoder.layer.1.attention.output
BertSelfOutput(
  (dense): Linear(in_features=316, out_features=316, bias=True)
  (LayerNorm): LayerNorm((316,), eps=1e-12, elementwise_affine=True)
  (dropout): Dropout(p=0.3, inplace=False)
)
Model layer:
transformer.bert.encoder.layer.1.attention.output.dense
Linear(in_features=316, out_features=316, bias=True)
Model layer:
transformer.bert.encoder.layer.1.attention.output.LayerNorm
LayerNorm((316,), eps=1e-12, elementwise_affine=True)
Model layer:
transformer.bert.encoder.layer.1.attention.output.dropout
Dropout(p=0.3, inplace=False)
Model layer:
transformer.bert.encoder.layer.1.intermediate
BertIntermediate(
  (dense): Linear(in_features=316, out_features=3072, bias=True)
  (intermediate_act_fn): GELUActivation()
)
Model layer:
transformer.bert.encoder.layer.1.intermediate.dense
Linear(in_features=316, out_features=3072, bias=True)
Model layer:
transformer.bert.encoder.layer.1.intermediate.intermediate_act_fn
GELUActivation()
Model layer:
transformer.bert.encoder.layer.1.output
BertOutput(
  (dense): Linear(in_features=3072, out_features=316, bias=True)
  (LayerNorm): LayerNorm((316,), eps=1e-12, elementwise_affine=True)
  (dropout): Dropout(p=0.3, inplace=False)
)
Model layer:
transformer.bert.encoder.layer.1.output.dense
Linear(in_features=3072, out_features=316, bias=True)
Model layer:
transformer.bert.encoder.layer.1.output.LayerNorm
LayerNorm((316,), eps=1e-12, elementwise_affine=True)
Model layer:
transformer.bert.encoder.layer.1.output.dropout
Dropout(p=0.3, inplace=False)
Model layer:
transformer.bert.encoder.layer.2
BertLayer(
  (attention): BertAttention(
    (self): BertSelfAttention(
      (query): Linear(in_features=316, out_features=316, bias=True)
      (key): Linear(in_features=316, out_features=316, bias=True)
      (value): Linear(in_features=316, out_features=316, bias=True)
      (dropout): Dropout(p=0.1, inplace=False)
    )
    (output): BertSelfOutput(
      (dense): Linear(in_features=316, out_features=316, bias=True)
      (LayerNorm): LayerNorm((316,), eps=1e-12, elementwise_affine=True)
      (dropout): Dropout(p=0.3, inplace=False)
    )
  )
  (intermediate): BertIntermediate(
    (dense): Linear(in_features=316, out_features=3072, bias=True)
    (intermediate_act_fn): GELUActivation()
  )
  (output): BertOutput(
    (dense): Linear(in_features=3072, out_features=316, bias=True)
    (LayerNorm): LayerNorm((316,), eps=1e-12, elementwise_affine=True)
    (dropout): Dropout(p=0.3, inplace=False)
  )
)
Model layer:
transformer.bert.encoder.layer.2.attention
BertAttention(
  (self): BertSelfAttention(
    (query): Linear(in_features=316, out_features=316, bias=True)
    (key): Linear(in_features=316, out_features=316, bias=True)
    (value): Linear(in_features=316, out_features=316, bias=True)
    (dropout): Dropout(p=0.1, inplace=False)
  )
  (output): BertSelfOutput(
    (dense): Linear(in_features=316, out_features=316, bias=True)
    (LayerNorm): LayerNorm((316,), eps=1e-12, elementwise_affine=True)
    (dropout): Dropout(p=0.3, inplace=False)
  )
)
Model layer:
transformer.bert.encoder.layer.2.attention.self
BertSelfAttention(
  (query): Linear(in_features=316, out_features=316, bias=True)
  (key): Linear(in_features=316, out_features=316, bias=True)
  (value): Linear(in_features=316, out_features=316, bias=True)
  (dropout): Dropout(p=0.1, inplace=False)
)
Model layer:
transformer.bert.encoder.layer.2.attention.self.query
Linear(in_features=316, out_features=316, bias=True)
Model layer:
transformer.bert.encoder.layer.2.attention.self.key
Linear(in_features=316, out_features=316, bias=True)
Model layer:
transformer.bert.encoder.layer.2.attention.self.value
Linear(in_features=316, out_features=316, bias=True)
Model layer:
transformer.bert.encoder.layer.2.attention.self.dropout
Dropout(p=0.1, inplace=False)
Model layer:
transformer.bert.encoder.layer.2.attention.output
BertSelfOutput(
  (dense): Linear(in_features=316, out_features=316, bias=True)
  (LayerNorm): LayerNorm((316,), eps=1e-12, elementwise_affine=True)
  (dropout): Dropout(p=0.3, inplace=False)
)
Model layer:
transformer.bert.encoder.layer.2.attention.output.dense
Linear(in_features=316, out_features=316, bias=True)
Model layer:
transformer.bert.encoder.layer.2.attention.output.LayerNorm
LayerNorm((316,), eps=1e-12, elementwise_affine=True)
Model layer:
transformer.bert.encoder.layer.2.attention.output.dropout
Dropout(p=0.3, inplace=False)
Model layer:
transformer.bert.encoder.layer.2.intermediate
BertIntermediate(
  (dense): Linear(in_features=316, out_features=3072, bias=True)
  (intermediate_act_fn): GELUActivation()
)
Model layer:
transformer.bert.encoder.layer.2.intermediate.dense
Linear(in_features=316, out_features=3072, bias=True)
Model layer:
transformer.bert.encoder.layer.2.intermediate.intermediate_act_fn
GELUActivation()
Model layer:
transformer.bert.encoder.layer.2.output
BertOutput(
  (dense): Linear(in_features=3072, out_features=316, bias=True)
  (LayerNorm): LayerNorm((316,), eps=1e-12, elementwise_affine=True)
  (dropout): Dropout(p=0.3, inplace=False)
)
Model layer:
transformer.bert.encoder.layer.2.output.dense
Linear(in_features=3072, out_features=316, bias=True)
Model layer:
transformer.bert.encoder.layer.2.output.LayerNorm
LayerNorm((316,), eps=1e-12, elementwise_affine=True)
Model layer:
transformer.bert.encoder.layer.2.output.dropout
Dropout(p=0.3, inplace=False)
Model layer:
transformer.bert.encoder.layer.3
BertLayer(
  (attention): BertAttention(
    (self): BertSelfAttention(
      (query): Linear(in_features=316, out_features=316, bias=True)
      (key): Linear(in_features=316, out_features=316, bias=True)
      (value): Linear(in_features=316, out_features=316, bias=True)
      (dropout): Dropout(p=0.1, inplace=False)
    )
    (output): BertSelfOutput(
      (dense): Linear(in_features=316, out_features=316, bias=True)
      (LayerNorm): LayerNorm((316,), eps=1e-12, elementwise_affine=True)
      (dropout): Dropout(p=0.3, inplace=False)
    )
  )
  (intermediate): BertIntermediate(
    (dense): Linear(in_features=316, out_features=3072, bias=True)
    (intermediate_act_fn): GELUActivation()
  )
  (output): BertOutput(
    (dense): Linear(in_features=3072, out_features=316, bias=True)
    (LayerNorm): LayerNorm((316,), eps=1e-12, elementwise_affine=True)
    (dropout): Dropout(p=0.3, inplace=False)
  )
)
Model layer:
transformer.bert.encoder.layer.3.attention
BertAttention(
  (self): BertSelfAttention(
    (query): Linear(in_features=316, out_features=316, bias=True)
    (key): Linear(in_features=316, out_features=316, bias=True)
    (value): Linear(in_features=316, out_features=316, bias=True)
    (dropout): Dropout(p=0.1, inplace=False)
  )
  (output): BertSelfOutput(
    (dense): Linear(in_features=316, out_features=316, bias=True)
    (LayerNorm): LayerNorm((316,), eps=1e-12, elementwise_affine=True)
    (dropout): Dropout(p=0.3, inplace=False)
  )
)
Model layer:
transformer.bert.encoder.layer.3.attention.self
BertSelfAttention(
  (query): Linear(in_features=316, out_features=316, bias=True)
  (key): Linear(in_features=316, out_features=316, bias=True)
  (value): Linear(in_features=316, out_features=316, bias=True)
  (dropout): Dropout(p=0.1, inplace=False)
)
Model layer:
transformer.bert.encoder.layer.3.attention.self.query
Linear(in_features=316, out_features=316, bias=True)
Model layer:
transformer.bert.encoder.layer.3.attention.self.key
Linear(in_features=316, out_features=316, bias=True)
Model layer:
transformer.bert.encoder.layer.3.attention.self.value
Linear(in_features=316, out_features=316, bias=True)
Model layer:
transformer.bert.encoder.layer.3.attention.self.dropout
Dropout(p=0.1, inplace=False)
Model layer:
transformer.bert.encoder.layer.3.attention.output
BertSelfOutput(
  (dense): Linear(in_features=316, out_features=316, bias=True)
  (LayerNorm): LayerNorm((316,), eps=1e-12, elementwise_affine=True)
  (dropout): Dropout(p=0.3, inplace=False)
)
Model layer:
transformer.bert.encoder.layer.3.attention.output.dense
Linear(in_features=316, out_features=316, bias=True)
Model layer:
transformer.bert.encoder.layer.3.attention.output.LayerNorm
LayerNorm((316,), eps=1e-12, elementwise_affine=True)
Model layer:
transformer.bert.encoder.layer.3.attention.output.dropout
Dropout(p=0.3, inplace=False)
Model layer:
transformer.bert.encoder.layer.3.intermediate
BertIntermediate(
  (dense): Linear(in_features=316, out_features=3072, bias=True)
  (intermediate_act_fn): GELUActivation()
)
Model layer:
transformer.bert.encoder.layer.3.intermediate.dense
Linear(in_features=316, out_features=3072, bias=True)
Model layer:
transformer.bert.encoder.layer.3.intermediate.intermediate_act_fn
GELUActivation()
Model layer:
transformer.bert.encoder.layer.3.output
BertOutput(
  (dense): Linear(in_features=3072, out_features=316, bias=True)
  (LayerNorm): LayerNorm((316,), eps=1e-12, elementwise_affine=True)
  (dropout): Dropout(p=0.3, inplace=False)
)
Model layer:
transformer.bert.encoder.layer.3.output.dense
Linear(in_features=3072, out_features=316, bias=True)
Model layer:
transformer.bert.encoder.layer.3.output.LayerNorm
LayerNorm((316,), eps=1e-12, elementwise_affine=True)
Model layer:
transformer.bert.encoder.layer.3.output.dropout
Dropout(p=0.3, inplace=False)
Model layer:
transformer.bert.encoder.layer.4
BertLayer(
  (attention): BertAttention(
    (self): BertSelfAttention(
      (query): Linear(in_features=316, out_features=316, bias=True)
      (key): Linear(in_features=316, out_features=316, bias=True)
      (value): Linear(in_features=316, out_features=316, bias=True)
      (dropout): Dropout(p=0.1, inplace=False)
    )
    (output): BertSelfOutput(
      (dense): Linear(in_features=316, out_features=316, bias=True)
      (LayerNorm): LayerNorm((316,), eps=1e-12, elementwise_affine=True)
      (dropout): Dropout(p=0.3, inplace=False)
    )
  )
  (intermediate): BertIntermediate(
    (dense): Linear(in_features=316, out_features=3072, bias=True)
    (intermediate_act_fn): GELUActivation()
  )
  (output): BertOutput(
    (dense): Linear(in_features=3072, out_features=316, bias=True)
    (LayerNorm): LayerNorm((316,), eps=1e-12, elementwise_affine=True)
    (dropout): Dropout(p=0.3, inplace=False)
  )
)
Model layer:
transformer.bert.encoder.layer.4.attention
BertAttention(
  (self): BertSelfAttention(
    (query): Linear(in_features=316, out_features=316, bias=True)
    (key): Linear(in_features=316, out_features=316, bias=True)
    (value): Linear(in_features=316, out_features=316, bias=True)
    (dropout): Dropout(p=0.1, inplace=False)
  )
  (output): BertSelfOutput(
    (dense): Linear(in_features=316, out_features=316, bias=True)
    (LayerNorm): LayerNorm((316,), eps=1e-12, elementwise_affine=True)
    (dropout): Dropout(p=0.3, inplace=False)
  )
)
Model layer:
transformer.bert.encoder.layer.4.attention.self
BertSelfAttention(
  (query): Linear(in_features=316, out_features=316, bias=True)
  (key): Linear(in_features=316, out_features=316, bias=True)
  (value): Linear(in_features=316, out_features=316, bias=True)
  (dropout): Dropout(p=0.1, inplace=False)
)
Model layer:
transformer.bert.encoder.layer.4.attention.self.query
Linear(in_features=316, out_features=316, bias=True)
Model layer:
transformer.bert.encoder.layer.4.attention.self.key
Linear(in_features=316, out_features=316, bias=True)
Model layer:
transformer.bert.encoder.layer.4.attention.self.value
Linear(in_features=316, out_features=316, bias=True)
Model layer:
transformer.bert.encoder.layer.4.attention.self.dropout
Dropout(p=0.1, inplace=False)
Model layer:
transformer.bert.encoder.layer.4.attention.output
BertSelfOutput(
  (dense): Linear(in_features=316, out_features=316, bias=True)
  (LayerNorm): LayerNorm((316,), eps=1e-12, elementwise_affine=True)
  (dropout): Dropout(p=0.3, inplace=False)
)
Model layer:
transformer.bert.encoder.layer.4.attention.output.dense
Linear(in_features=316, out_features=316, bias=True)
Model layer:
transformer.bert.encoder.layer.4.attention.output.LayerNorm
LayerNorm((316,), eps=1e-12, elementwise_affine=True)
Model layer:
transformer.bert.encoder.layer.4.attention.output.dropout
Dropout(p=0.3, inplace=False)
Model layer:
transformer.bert.encoder.layer.4.intermediate
BertIntermediate(
  (dense): Linear(in_features=316, out_features=3072, bias=True)
  (intermediate_act_fn): GELUActivation()
)
Model layer:
transformer.bert.encoder.layer.4.intermediate.dense
Linear(in_features=316, out_features=3072, bias=True)
Model layer:
transformer.bert.encoder.layer.4.intermediate.intermediate_act_fn
GELUActivation()
Model layer:
transformer.bert.encoder.layer.4.output
BertOutput(
  (dense): Linear(in_features=3072, out_features=316, bias=True)
  (LayerNorm): LayerNorm((316,), eps=1e-12, elementwise_affine=True)
  (dropout): Dropout(p=0.3, inplace=False)
)
Model layer:
transformer.bert.encoder.layer.4.output.dense
Linear(in_features=3072, out_features=316, bias=True)
Model layer:
transformer.bert.encoder.layer.4.output.LayerNorm
LayerNorm((316,), eps=1e-12, elementwise_affine=True)
Model layer:
transformer.bert.encoder.layer.4.output.dropout
Dropout(p=0.3, inplace=False)
Model layer:
transformer.bert.encoder.layer.5
BertLayer(
  (attention): BertAttention(
    (self): BertSelfAttention(
      (query): Linear(in_features=316, out_features=316, bias=True)
      (key): Linear(in_features=316, out_features=316, bias=True)
      (value): Linear(in_features=316, out_features=316, bias=True)
      (dropout): Dropout(p=0.1, inplace=False)
    )
    (output): BertSelfOutput(
      (dense): Linear(in_features=316, out_features=316, bias=True)
      (LayerNorm): LayerNorm((316,), eps=1e-12, elementwise_affine=True)
      (dropout): Dropout(p=0.3, inplace=False)
    )
  )
  (intermediate): BertIntermediate(
    (dense): Linear(in_features=316, out_features=3072, bias=True)
    (intermediate_act_fn): GELUActivation()
  )
  (output): BertOutput(
    (dense): Linear(in_features=3072, out_features=316, bias=True)
    (LayerNorm): LayerNorm((316,), eps=1e-12, elementwise_affine=True)
    (dropout): Dropout(p=0.3, inplace=False)
  )
)
Model layer:
transformer.bert.encoder.layer.5.attention
BertAttention(
  (self): BertSelfAttention(
    (query): Linear(in_features=316, out_features=316, bias=True)
    (key): Linear(in_features=316, out_features=316, bias=True)
    (value): Linear(in_features=316, out_features=316, bias=True)
    (dropout): Dropout(p=0.1, inplace=False)
  )
  (output): BertSelfOutput(
    (dense): Linear(in_features=316, out_features=316, bias=True)
    (LayerNorm): LayerNorm((316,), eps=1e-12, elementwise_affine=True)
    (dropout): Dropout(p=0.3, inplace=False)
  )
)
Model layer:
transformer.bert.encoder.layer.5.attention.self
BertSelfAttention(
  (query): Linear(in_features=316, out_features=316, bias=True)
  (key): Linear(in_features=316, out_features=316, bias=True)
  (value): Linear(in_features=316, out_features=316, bias=True)
  (dropout): Dropout(p=0.1, inplace=False)
)
Model layer:
transformer.bert.encoder.layer.5.attention.self.query
Linear(in_features=316, out_features=316, bias=True)
Model layer:
transformer.bert.encoder.layer.5.attention.self.key
Linear(in_features=316, out_features=316, bias=True)
Model layer:
transformer.bert.encoder.layer.5.attention.self.value
Linear(in_features=316, out_features=316, bias=True)
Model layer:
transformer.bert.encoder.layer.5.attention.self.dropout
Dropout(p=0.1, inplace=False)
Model layer:
transformer.bert.encoder.layer.5.attention.output
BertSelfOutput(
  (dense): Linear(in_features=316, out_features=316, bias=True)
  (LayerNorm): LayerNorm((316,), eps=1e-12, elementwise_affine=True)
  (dropout): Dropout(p=0.3, inplace=False)
)
Model layer:
transformer.bert.encoder.layer.5.attention.output.dense
Linear(in_features=316, out_features=316, bias=True)
Model layer:
transformer.bert.encoder.layer.5.attention.output.LayerNorm
LayerNorm((316,), eps=1e-12, elementwise_affine=True)
Model layer:
transformer.bert.encoder.layer.5.attention.output.dropout
Dropout(p=0.3, inplace=False)
Model layer:
transformer.bert.encoder.layer.5.intermediate
BertIntermediate(
  (dense): Linear(in_features=316, out_features=3072, bias=True)
  (intermediate_act_fn): GELUActivation()
)
Model layer:
transformer.bert.encoder.layer.5.intermediate.dense
Linear(in_features=316, out_features=3072, bias=True)
Model layer:
transformer.bert.encoder.layer.5.intermediate.intermediate_act_fn
GELUActivation()
Model layer:
transformer.bert.encoder.layer.5.output
BertOutput(
  (dense): Linear(in_features=3072, out_features=316, bias=True)
  (LayerNorm): LayerNorm((316,), eps=1e-12, elementwise_affine=True)
  (dropout): Dropout(p=0.3, inplace=False)
)
Model layer:
transformer.bert.encoder.layer.5.output.dense
Linear(in_features=3072, out_features=316, bias=True)
Model layer:
transformer.bert.encoder.layer.5.output.LayerNorm
LayerNorm((316,), eps=1e-12, elementwise_affine=True)
Model layer:
transformer.bert.encoder.layer.5.output.dropout
Dropout(p=0.3, inplace=False)
Model layer:
transformer.bert.encoder.layer.6
BertLayer(
  (attention): BertAttention(
    (self): BertSelfAttention(
      (query): Linear(in_features=316, out_features=316, bias=True)
      (key): Linear(in_features=316, out_features=316, bias=True)
      (value): Linear(in_features=316, out_features=316, bias=True)
      (dropout): Dropout(p=0.1, inplace=False)
    )
    (output): BertSelfOutput(
      (dense): Linear(in_features=316, out_features=316, bias=True)
      (LayerNorm): LayerNorm((316,), eps=1e-12, elementwise_affine=True)
      (dropout): Dropout(p=0.3, inplace=False)
    )
  )
  (intermediate): BertIntermediate(
    (dense): Linear(in_features=316, out_features=3072, bias=True)
    (intermediate_act_fn): GELUActivation()
  )
  (output): BertOutput(
    (dense): Linear(in_features=3072, out_features=316, bias=True)
    (LayerNorm): LayerNorm((316,), eps=1e-12, elementwise_affine=True)
    (dropout): Dropout(p=0.3, inplace=False)
  )
)
Model layer:
transformer.bert.encoder.layer.6.attention
BertAttention(
  (self): BertSelfAttention(
    (query): Linear(in_features=316, out_features=316, bias=True)
    (key): Linear(in_features=316, out_features=316, bias=True)
    (value): Linear(in_features=316, out_features=316, bias=True)
    (dropout): Dropout(p=0.1, inplace=False)
  )
  (output): BertSelfOutput(
    (dense): Linear(in_features=316, out_features=316, bias=True)
    (LayerNorm): LayerNorm((316,), eps=1e-12, elementwise_affine=True)
    (dropout): Dropout(p=0.3, inplace=False)
  )
)
Model layer:
transformer.bert.encoder.layer.6.attention.self
BertSelfAttention(
  (query): Linear(in_features=316, out_features=316, bias=True)
  (key): Linear(in_features=316, out_features=316, bias=True)
  (value): Linear(in_features=316, out_features=316, bias=True)
  (dropout): Dropout(p=0.1, inplace=False)
)
Model layer:
transformer.bert.encoder.layer.6.attention.self.query
Linear(in_features=316, out_features=316, bias=True)
Model layer:
transformer.bert.encoder.layer.6.attention.self.key
Linear(in_features=316, out_features=316, bias=True)
Model layer:
transformer.bert.encoder.layer.6.attention.self.value
Linear(in_features=316, out_features=316, bias=True)
Model layer:
transformer.bert.encoder.layer.6.attention.self.dropout
Dropout(p=0.1, inplace=False)
Model layer:
transformer.bert.encoder.layer.6.attention.output
BertSelfOutput(
  (dense): Linear(in_features=316, out_features=316, bias=True)
  (LayerNorm): LayerNorm((316,), eps=1e-12, elementwise_affine=True)
  (dropout): Dropout(p=0.3, inplace=False)
)
Model layer:
transformer.bert.encoder.layer.6.attention.output.dense
Linear(in_features=316, out_features=316, bias=True)
Model layer:
transformer.bert.encoder.layer.6.attention.output.LayerNorm
LayerNorm((316,), eps=1e-12, elementwise_affine=True)
Model layer:
transformer.bert.encoder.layer.6.attention.output.dropout
Dropout(p=0.3, inplace=False)
Model layer:
transformer.bert.encoder.layer.6.intermediate
BertIntermediate(
  (dense): Linear(in_features=316, out_features=3072, bias=True)
  (intermediate_act_fn): GELUActivation()
)
Model layer:
transformer.bert.encoder.layer.6.intermediate.dense
Linear(in_features=316, out_features=3072, bias=True)
Model layer:
transformer.bert.encoder.layer.6.intermediate.intermediate_act_fn
GELUActivation()
Model layer:
transformer.bert.encoder.layer.6.output
BertOutput(
  (dense): Linear(in_features=3072, out_features=316, bias=True)
  (LayerNorm): LayerNorm((316,), eps=1e-12, elementwise_affine=True)
  (dropout): Dropout(p=0.3, inplace=False)
)
Model layer:
transformer.bert.encoder.layer.6.output.dense
Linear(in_features=3072, out_features=316, bias=True)
Model layer:
transformer.bert.encoder.layer.6.output.LayerNorm
LayerNorm((316,), eps=1e-12, elementwise_affine=True)
Model layer:
transformer.bert.encoder.layer.6.output.dropout
Dropout(p=0.3, inplace=False)
Model layer:
transformer.bert.encoder.layer.7
BertLayer(
  (attention): BertAttention(
    (self): BertSelfAttention(
      (query): Linear(in_features=316, out_features=316, bias=True)
      (key): Linear(in_features=316, out_features=316, bias=True)
      (value): Linear(in_features=316, out_features=316, bias=True)
      (dropout): Dropout(p=0.1, inplace=False)
    )
    (output): BertSelfOutput(
      (dense): Linear(in_features=316, out_features=316, bias=True)
      (LayerNorm): LayerNorm((316,), eps=1e-12, elementwise_affine=True)
      (dropout): Dropout(p=0.3, inplace=False)
    )
  )
  (intermediate): BertIntermediate(
    (dense): Linear(in_features=316, out_features=3072, bias=True)
    (intermediate_act_fn): GELUActivation()
  )
  (output): BertOutput(
    (dense): Linear(in_features=3072, out_features=316, bias=True)
    (LayerNorm): LayerNorm((316,), eps=1e-12, elementwise_affine=True)
    (dropout): Dropout(p=0.3, inplace=False)
  )
)
Model layer:
transformer.bert.encoder.layer.7.attention
BertAttention(
  (self): BertSelfAttention(
    (query): Linear(in_features=316, out_features=316, bias=True)
    (key): Linear(in_features=316, out_features=316, bias=True)
    (value): Linear(in_features=316, out_features=316, bias=True)
    (dropout): Dropout(p=0.1, inplace=False)
  )
  (output): BertSelfOutput(
    (dense): Linear(in_features=316, out_features=316, bias=True)
    (LayerNorm): LayerNorm((316,), eps=1e-12, elementwise_affine=True)
    (dropout): Dropout(p=0.3, inplace=False)
  )
)
Model layer:
transformer.bert.encoder.layer.7.attention.self
BertSelfAttention(
  (query): Linear(in_features=316, out_features=316, bias=True)
  (key): Linear(in_features=316, out_features=316, bias=True)
  (value): Linear(in_features=316, out_features=316, bias=True)
  (dropout): Dropout(p=0.1, inplace=False)
)
Model layer:
transformer.bert.encoder.layer.7.attention.self.query
Linear(in_features=316, out_features=316, bias=True)
Model layer:
transformer.bert.encoder.layer.7.attention.self.key
Linear(in_features=316, out_features=316, bias=True)
Model layer:
transformer.bert.encoder.layer.7.attention.self.value
Linear(in_features=316, out_features=316, bias=True)
Model layer:
transformer.bert.encoder.layer.7.attention.self.dropout
Dropout(p=0.1, inplace=False)
Model layer:
transformer.bert.encoder.layer.7.attention.output
BertSelfOutput(
  (dense): Linear(in_features=316, out_features=316, bias=True)
  (LayerNorm): LayerNorm((316,), eps=1e-12, elementwise_affine=True)
  (dropout): Dropout(p=0.3, inplace=False)
)
Model layer:
transformer.bert.encoder.layer.7.attention.output.dense
Linear(in_features=316, out_features=316, bias=True)
Model layer:
transformer.bert.encoder.layer.7.attention.output.LayerNorm
LayerNorm((316,), eps=1e-12, elementwise_affine=True)
Model layer:
transformer.bert.encoder.layer.7.attention.output.dropout
Dropout(p=0.3, inplace=False)
Model layer:
transformer.bert.encoder.layer.7.intermediate
BertIntermediate(
  (dense): Linear(in_features=316, out_features=3072, bias=True)
  (intermediate_act_fn): GELUActivation()
)
Model layer:
transformer.bert.encoder.layer.7.intermediate.dense
Linear(in_features=316, out_features=3072, bias=True)
Model layer:
transformer.bert.encoder.layer.7.intermediate.intermediate_act_fn
GELUActivation()
Model layer:
transformer.bert.encoder.layer.7.output
BertOutput(
  (dense): Linear(in_features=3072, out_features=316, bias=True)
  (LayerNorm): LayerNorm((316,), eps=1e-12, elementwise_affine=True)
  (dropout): Dropout(p=0.3, inplace=False)
)
Model layer:
transformer.bert.encoder.layer.7.output.dense
Linear(in_features=3072, out_features=316, bias=True)
Model layer:
transformer.bert.encoder.layer.7.output.LayerNorm
LayerNorm((316,), eps=1e-12, elementwise_affine=True)
Model layer:
transformer.bert.encoder.layer.7.output.dropout
Dropout(p=0.3, inplace=False)
Model layer:
transformer.bert.pooler
BertPooler(
  (dense): Linear(in_features=316, out_features=316, bias=True)
  (activation): Tanh()
)
Model layer:
transformer.bert.pooler.dense
Linear(in_features=316, out_features=316, bias=True)
Model layer:
transformer.bert.pooler.activation
Tanh()
Model layer:
transformer.cls_embedding
Sequential(
  (0): Linear(in_features=316, out_features=316, bias=True)
  (1): LeakyReLU(negative_slope=0.01)
)
Model layer:
transformer.cls_embedding.0
Linear(in_features=316, out_features=316, bias=True)
Model layer:
transformer.cls_embedding.1
LeakyReLU(negative_slope=0.01)
Model layer:
high_spatial_attention
Attention(
  (qkv): Linear(in_features=92, out_features=276, bias=False)
  (attn_drop): Dropout(p=0.0, inplace=False)
)
Model layer:
high_spatial_attention.qkv
Linear(in_features=92, out_features=276, bias=False)
Model layer:
high_spatial_attention.attn_drop
Dropout(p=0.0, inplace=False)
Model layer:
low_spatial_attention
Attention(
  (qkv): Linear(in_features=92, out_features=276, bias=False)
  (attn_drop): Dropout(p=0.0, inplace=False)
)
Model layer:
low_spatial_attention.qkv
Linear(in_features=92, out_features=276, bias=False)
Model layer:
low_spatial_attention.attn_drop
Dropout(p=0.0, inplace=False)
Model layer:
ultralow_spatial_attention
Attention(
  (qkv): Linear(in_features=92, out_features=276, bias=False)
  (attn_drop): Dropout(p=0.0, inplace=False)
)
Model layer:
ultralow_spatial_attention.qkv
Linear(in_features=92, out_features=276, bias=False)
Model layer:
ultralow_spatial_attention.attn_drop
Dropout(p=0.0, inplace=False)
Model layer:
regression_head
Classifier(
  (linear): Linear(in_features=316, out_features=1, bias=True)
  (dropout): Dropout(p=0.6, inplace=False)
  (norm): BatchNorm1d(1, eps=1e-05, momentum=0.1, affine=True, track_running_stats=True)
)
Model layer:
regression_head.linear
Linear(in_features=316, out_features=1, bias=True)
Model layer:
regression_head.dropout
Dropout(p=0.6, inplace=False)
Model layer:
regression_head.norm
BatchNorm1d(1, eps=1e-05, momentum=0.1, affine=True, track_running_stats=True)
Model summary:
=====================================================================================
…
